THREE/best_full_state_model.pth (torch, 469480 bytes, 50 tensors)

embedding.weight f4 [64, 3]
0.572241 -0.21849947 0.43007514 0.529676 0.23955622 0.21593009 -0.4130316 0.46488082
0.11585659 0.34953502 -0.021881003 -0.38600495 0.26784456 0.2522544 0.34711438 -0.4228565
-0.32769656 0.5031229 0.30336487 -0.07725889 0.15497524 -0.3609425 0.23458001 0.29603732
-0.076826945 -0.45556986 0.37780195 -0.040203806 -0.09701302 0.0028323606 -0.14183341 -0.3956629
-0.15106924 0.42297623 0.0639433 -0.40638652 0.49715093 0.010102333 -0.22706294 -0.13081041
-0.17171757 0.058752857 0.49985418 0.20406684 -0.24147822 -0.3270129 0.4193217 0.123418614
-0.24492678 0.09191694 0.44489297 -0.019000424 -0.54872674 0.321947 0.18652593 -0.5508508
-0.3865126 0.20813939 0.4001125 -0.09909226 0.4098182 -0.44070294 0.50977045 -0.013741428
-0.27056736 -0.39613712 -0.5586586 0.21968955 -0.20180105 0.3084637 -0.39374265 0.3579632
-0.2236844 0.3163177 0.14339864 -0.06539348 0.15928757 -0.46025535 -0.13295522 -0.27486128
-0.39119476 -0.3168969 -0.28826588 -0.4891742 0.5195027 0.3796244 0.4429549 0.023615263
0.42414445 0.5254772 -0.034345903 -0.32173455 0.4289656 -0.051457226 0.11037591 -0.16961148
0.3762172 0.3527614 0.27314883 -0.111422546 -0.019962532 0.24302205 -0.36146578 0.042485323
0.17439608 0.18195198 -0.13149457 -0.54900354 0.22453578 -0.5738703 -0.29622474 -0.40415463
0.42833847 -0.023732172 0.50839955 0.3331926 -0.4588784 0.5158087 -0.38710937 -0.1875225
-0.09553746 0.42634293 -0.4059902 0.111342795 -0.19482484 -0.5618873 -0.1756465 0.5633256
-0.4942946 -0.24003151 0.19391209 -0.5243335 -0.16456486 -0.06924253 -0.008277755 -0.1468881
-0.35417676 -0.061687965 0.46973714 -0.5574663 0.06688196 0.13368301 0.43930376 -0.21280742
-0.088450134 0.37433523 0.2875536 -0.25673425 -0.1561572 -0.5405343 0.07542848 -0.3800134
0.42850733 0.4286964 -0.3821972 -0.18915437 -0.28752184 -0.18560694 -0.14810301 0.15449563
-0.06708288 0.37871593 0.321924 -0.35785538 -0.15449752 -0.55390537 0.033199783 -0.14215499
0.096721515 0.41746005 -0.34968737 0.1297515 -0.17073889 0.378332 -0.21178505 -0.35067472
0.026548289 0.34381327 0.5400531 -0.15375756 -0.12161175 -0.30649948 -0.44718462 -0.12865739
-0.03611917 0.35474858 0.07745982 0.29009706 -0.09805499 -0.322116 0.11079748 0.063210346
00000000: 637e 123f 53be 5fbe cf32 dc3e d998 073f
00000010: 3a4e 753e c71c 5d3e e178 d3be dc04 ee3e
00000020: 3846 ed3d 41f6 b23e ca3f b3bc 71a2 c5be
00000030: ec22 893e 7d27 813e fab8 b13e a680 d8be
00000040: d8c7 a7be aacc 003f a452 9b3e e939 9ebd
00000050: d4b1 1e3e 75cd b8be be35 703e 3492 973e
00000060: 7257 9dbd 7440 e9be 426f c13e bfac 24bd
00000070: c3ae c6bd 209f 393b c73c 11be 5494 cabe
00000080: e5b1 1abe 5790 d83e b4f4 823d e511 d0be
00000090: 918a fe3e 4184 253c 3083 68be 2af3 05be
000000a0: bbd6 2fbe d6a6 703d e3ec ff3e e6f6 503e
000000b0: 1146 77be 3c6e a7be 55b1 d63e e6c2 fc3d
000000c0: 16ce 7abe f33e bc3d 03c9 e33e c7a6 9bbc
000000d0: 5b79 0cbf 3dd6 a43e a700 3f3e 8f04 0dbf
000000e0: fbe4 c5be 7e22 553e 8cdb cc3e e2f0 cabd
000000f0: b1d3 d13e d1a3 e1be 5180 023f ba23 61bc
00000100: ce87 8abe 7cd2 cabe 4004 0fbf 4cf6 603e
00000110: efa4 4ebe f4ee 9d3e a398 c9be f446 b73e
00000120: 860d 65be 65f4 a13e 18d7 123e 04ed 85bd
00000130: 481c 233e 97a6 ebbe 6a25 08be 9eba 8cbe
00000140: ae4a c8be 4f40 a2be 9697 93be 0a75 fabe
00000150: 21fe 043f 215e c23e fcca e23e cc74 c13c
00000160: 7629 d93e ac85 063f 4aae 0cbd 64ba a4be
00000170: 61a1 db3e d0c4 52bd c40c e23d a2ae 2dbe
00000180: 8a9f c03e 249d b43e 2ada 8b3e 8131 e4bd
00000190: 7788 a3bc c6da 783e 0b12 b9be 1705 2e3d
000001a0: e394 323e 9f51 3a3e 83a6 06be 7f8b 0cbf
000001b0: b5ec 653e 2ae9 12bf c5aa 97be 5bed cebe
000001c0: 2e4f db3e f969 c2bc 7926 023f 3898 aa3e
000001d0: 1cf2 eabe 0a0c 043f 3333 c6be e605 40be
000001e0: 25a9 c3bd 9f49 da3e f3dd cfbe b107 e43d
000001f0: 2a80 47be d9d7 0fbf addc 33be 1b36 103f
00000200: 2f14 fdbe d2ca 75be e490 463e b83a 06bf
00000210: b183 28be 07cf 8dbd 6c9f 07bc d669 16be
00000220: a856 b5be 85ac 7cbd 6381 f03e 1db6 0ebf
00000230: 69f9 883d 33e4 083e 6cec e03e 30ea 59be
00000240: 5825 b5bd dea8 bf3e 3a3a 933e ac72 83be
00000250: ace7 1fbe 7560 0abf 3f7a 9a3d 1e91 c2be
00000260: 5065 db3e 187e db3e 5aaf c3be afb1 41be
00000270: 1036 93be bf0f 3ebe 51a8 17be 1a34 1e3e
00000280: c062 89bd 0ee7 c13e 39d3 a43e d238 b7be
00000290: 9934 1ebe becc 0dbf 7ffc 073d 1491 11be
000002a0: ee15 c63d 53bd d53e 390a b3be 94dd 043e
000002b0: 2dd6 2ebe bbb4 c13e 2ede 58be a38b b3be
000002c0: cc7b d93c 4b08 b03e ec40 0a3f 9f72 1dbe
000002d0: 950f f9bd 80ed 9cbe 62f5 e4be c3be 03be
000002e0: b2f1 13bd 9ba1 b53e 41a3 9e3d 9a87 943e
000002f0: 0ed1 c8bd 63ec a4be cae9 e23d 6d74 813d

embedding.bias f4 [64]
-0.17000836 -0.14938562 0.22787113 -0.27613446 0.5701379 -0.4984815 0.4594933 0.1706549
-0.048029304 -0.37009957 -0.4786583 -0.43853793 -0.000277341 0.3412556 0.24859984 0.49251318
-0.29497463 -0.46813005 -0.38411573 -0.28454372 -0.4902301 0.31377766 -0.06503075 -0.21559888
0.30609655 0.5169422 -0.03981322 -0.0861989 0.14701167 0.5173084 -0.5627356 0.040383093
-0.4907814 0.010286979 0.26160523 -0.47187507 -0.5602396 -0.46541062 -0.15818068 -0.013618649
-0.56917405 -0.23290214 0.3892225 0.3110392 -0.1089591 -0.28171593 0.2113383 0.04917887
0.2853534 0.4235117 0.47662273 -0.19975281 0.27318856 0.45187387 0.5071543 -0.23843901
0.39375404 -0.14556265 -0.17459132 -0.21847509 -0.36413246 0.14404978 0.2654807 0.32996646
00000000: ac16 2ebe 8bf8 18be 0d57 693e 7f61 8dbe
00000010: 8ff4 113f f838 ffbe b542 eb3e 28c0 2e3e
00000020: 60ba 44bd b17d bdbe b312 f5be 0b88 e0be
00000030: 1468 91b9 0eb9 ae3e f590 7e3e b02a fc3e
00000040: ea06 97be beae efbe d1aa c4be b7af 91be
00000050: 71ff fabe 77a7 a03e d82e 85bd f4c5 5cbe
00000060: b0b8 9c3e 5356 043f 3013 23bd 0d89 b0bd
00000070: 3a8a 163e 536e 043f 710f 10bf be68 253d
00000080: b347 fbbe b88a 283c 1ff1 853e 9c99 f1be
00000090: dd6b 0fbf 4d4a eebe 1efa 21be c120 5fbc
000000a0: 64b5 11bf e67d 6ebe 2c48 c73e 8840 9f3e
000000b0: f325 dfbd 123d 90be 1169 583e c86f 493d
000000c0: d719 923e 87d6 d83e e507 f43e 008c 4cbe
000000d0: 5fdf 8b3e 035c e73e ddd4 013f 5b29 74be
000000e0: 219a c93e 600e 15be 11c8 32be efb7 5fbe
000000f0: 926f babe c981 133e 16ed 873e 5df1 a83e

gcn1.linear.weight f4 [64, 64]
0.10722311 -0.057686638 0.08054873 -0.07727279 0.09935386 0.07858483 -0.008809281 0.009944946
-0.12240066 -0.066537224 -0.088053 0.027146745 0.0340393 0.01294289 -0.0697749 -0.079267465
-0.08239993 -0.0059901313 -0.0100491615 0.09190834 -0.057316672 -0.044571057 0.006843228 0.12303295
-0.08150135 -0.02948368 -0.10162087 -0.07033791 -0.10188946 0.06368644 -0.07823148 0.11220325
-0.009690572 -0.10270331 0.11057787 -0.023529805 0.08070358 0.027449977 0.024892561 -0.09641701
0.01956042 0.099205285 0.040170893 -0.046545897 -0.02879211 0.0013649788 0.09748219 -0.056374744
-0.10811181 0.11428737 0.039948948 0.03808733 -0.052866515 0.013937804 0.03888543 -0.04705453
-0.056180976 -0.07675479 -0.10489912 0.009662933 0.032681737 0.016322095 -0.061033066 0.05941838
-0.04219578 -0.0060513904 0.036582515 0.09864152 -0.114899516 0.058718074 0.056796487 0.041628014
-0.06296295 -0.112737946 0.070193 -0.027313136 0.12674148 0.11963616 -0.03991889 -0.011422004
0.006404759 0.10824851 -0.024504598 -0.03607762 0.0722057 0.06993733 -0.022174317 0.08394338
-0.021437712 -0.07033366 -0.12093422 0.10082165 -0.096485265 -0.07907939 0.048552375 0.01590998
0.0036679334 -0.027550243 -0.10166742 0.039710503 -0.0487893 0.1257633 0.038325824 0.033374127
0.10333694 -0.11546145 -0.05593881 -0.106032595 0.05961097 0.12339942 -0.11836832 0.105478376
0.073687755 0.07244794 -0.073621675 0.045413367 -0.11669198 -0.054464273 -0.026656693 0.022575026
-0.007059294 -0.033654906 -0.088864334 0.019149551 0.10175056 0.0706162 0.0066073337 -0.047553804
0.12450203 -0.0008473389 -0.120516665 0.05948078 0.06453514 -0.07957112 -0.10055255 0.06106652
0.09656531 0.078135595 0.06799867 -0.046527766 0.09880008 0.029254023 -0.050140798 0.013228144
-0.05623826 0.121809475 0.119356595 -0.11742487 0.013005695 -0.036876734 -0.04357671 0.075356364
-0.046517536 0.103425734 -0.006071102 -0.06293937 -0.07164311 -0.0470058 -0.04993048 0.018324433
-0.026762087 0.021678738 -0.036362972 -0.036401574 0.09121508 -0.06751938 0.0827483 -0.06651053
0.092074536 -0.034084484 0.107652806 0.102652244 -0.011748913 -0.07459062 -0.025378723 -0.01961298
0.119389035 -0.10795817 -0.11381024 -0.11432335 0.12181485 -0.08096406 -0.040641602 0.052045878
0.036584478 0.084300674 0.10298268 -0.031255 -0.0013125614 -0.12646438 -0.02826425 -0.09818105
-0.03626408 0.043890107 -0.041735183 0.013341548 0.02323455 -0.0007787182 0.0837915 0.02951265
0.008500667 -0.026228406 -0.010921223 0.07835371 0.0660703 -0.014324011 -0.07480236 -0.0329789
-0.031656705 -0.020031583 0.08356925 -0.10678982 0.0022292351 0.07018702 0.02421069 0.10791985
-0.09209518 0.07519263 -0.10274402 0.009092641 0.054723334 0.012359001 0.039788738 0.03515376
-0.110113636 -0.0777132 0.114353254 -0.07503052 0.09182438 -0.08724595 -0.07228515 0.07447417
0.12014206 -0.027758062 0.019315906 0.10614592 -0.07288058 0.019305848 -0.009583139 0.009556718
-0.04916191 -0.033392437 0.08163954 -0.10480041 -0.1048307 0.067292735 0.012765137 0.09969552
-0.016707629 0.035523154 0.06984184 -0.04243416 0.11562244 -0.04419506 0.051323023 -0.06999439
00000000: ca97 db3d d348 6cbd bcf6 a43d 3241 9ebd
00000010: 097a cb3d 15f1 a03d cd54 10bc 20f0 223c
00000020: 32ad fabd ab44 88bd 2255 b4bd da62 de3c
00000030: cb6c 0b3d 6a0e 543c 25e6 8ebd fb56 a2bd
00000040: 4bc1 a8bd dd48 c4bb 3da5 24bc 713a bc3d
00000050: e3c4 6abd 2490 36bd 283d e03b b3f8 fb3d
00000060: 2eea a6bd c287 f1bc 9a1e d0bd 520d 90bd
00000070: 6cab d0bd 096e 823d d437 a0bd d1ca e53d
00000080: 34c5 1ebc 1d56 d2bd a676 e23d 94c1 c0bc
00000090: eb47 a53d c6de e03c 7ceb cb3c 4876 c5bd
000000a0: 2d3d a03c 242c cb3d 3c8a 243d e9a6 3ebd
000000b0: 6edd ebbc 17e9 b23a bea4 c73d 34e9 66bd
000000c0: ba69 ddbd 7f0f ea3d 82a1 233d 7601 1c3d
000000d0: 8f8a 58bd 635b 643c 5446 1f3d 40bc 40bd
000000e0: 061e 66bd 9e31 9dbd 5ad5 d6bd 4751 1e3c
000000f0: 49dd 053d eab5 853c cffd 79bd b060 733d
00000100: 7bd5 2cbd be4a c6bb 8cd7 153d 9104 ca3d
00000110: 7050 ebbd 5d82 703d 6fa3 683d 2382 2a3d
00000120: b8f2 80bd 27e3 e6bd 59c1 8f3d ccbf dfbc
00000130: 85c8 013e ce03 f53d fd81 23bd 5b23 3bbc
00000140: 03df d13b 65b1 dd3d debd c8bc 20c6 13bd
00000150: 95e0 933d 4e3b 8f3d eaa6 b5bc 82ea ab3d
00000160: 249e afbc 180b 90bd 5cac f7bd 957b ce3d
00000170: 119a c5bd 60f4 a1bd dbde 463d a555 823c
00000180: b661 703b 0cb1 e1bc 0237 d0bd 7ba7 223d
00000190: 4ad7 47bd 18c8 003e 8afb 1c3d 4fb3 083d
000001a0: 51a2 d33d 0d77 ecbd 1820 65bd 9e27 d9bd
000001b0: a22a 743d d6b8 fc3d 176b f2bd 0c05 d83d
000001c0: 9be9 963d 965f 943d f6c6 96bd 5e03 3a3d
000001d0: 34fc eebd ee15 5fbd 235f dabc 43ef b83c
000001e0: a651 e7bb bad9 09bd 81fe b5bd 85df 9c3c
000001f0: 9962 d03d 3a9f 903d 5582 d83b c7c7 42bd
00000200: ecfa fe3d f31f 5eba 71d1 f6bd 1ea2 733d
00000210: 002b 843d 2ff6 a2bd 7fee cdbd e320 7a3d
00000220: 09c4 c53d 8e05 a03d e342 8b3d e693 3ebd
00000230: b257 ca3d 22a6 ef3c 7060 4dbd dbba 583c
00000240: 175a 66bd 3f77 f93d 3b71 f43d 737c f0bd
00000250: d715 553c 0f0c 17bd 7e7d 32bd 7054 9a3d
00000260: 2c89 3ebd dfd0 d33d 18f0 c6bb 5be6 80bd
00000270: 9fb9 92bd 2789 40bd e783 4cbd 1f1d 963c
00000280: 2a3c dbbc 9c97 b13c 57f1 14bd d119 15bd
00000290: f9ce ba3d 9a47 8abd f177 a93d ac36 88bd
000002a0: 9391 bc3d 2c9c 0bbd 1379 dc3d 573b d23d
000002b0: 837e 40bc f8c2 98bd 0ae7 cfbc 66ab a0bc
000002c0: 3d82 f43d 2c19 ddbd 5815 e9bd 5c22 eabd
000002d0: 107a f93d 7cd0 a5bd cf77 26bd 0f2e 553d
000002e0: 9bd9 153d d5a5 ac3d 95e8 d23d 3e05 00bd
000002f0: 410a acba e17f 01be 6e8a e7bc 2513 c9bd
00000300: a589 14bd 1dc6 333d 83f2 2abd 8296 5a3c
00000310: 6256 be3c e522 4cba e19a ab3d 83c4 f13c
00000320: 6246 0b3c f4dc d6bc eeee 32bc e977 a03d
00000330: de4f 873d 42af 6abc fb31 99bd e214 07bd
00000340: 76aa 01bd 4619 a4bc 5b26 ab3d 9fb4 dabd
00000350: 5c18 123b 36be 8f3d 7f55 c63c 1505 dd3d
00000360: 669c bcbd 98fe 993d 756b d2bd 4df9 143c
00000370: 9325 603d 687d 4a3c 84f9 223d 64fd 0f3d
00000380: 4283 e1bd 1928 9fbd 0a32 ea3d 9aa9 99bd
00000390: 6c0e bc3d 01ae b2bd 3d0a 94bd ea85 983d
000003a0: 0a0d f63d e064 e3bc 643c 9e3c 0863 d93d
000003b0: 6a42 95bd 4c27 9e3c 9902 1dbc c893 1c3c
000003c0: 005e 49bd 82c6 08bd a232 a73d 99a1 d6bd
000003d0: 7ab1 d6bd c6d0 893d dd24 513c 2a2d cc3d
000003e0: 70de 88bc ba80 113d 3d09 8f3d 71cf 2dbd
000003f0: 75cb ec3d e105 35bd 1738 523d 3859 8fbd

gcn2.linear.weight f4 [64, 64]
-0.015472299 0.04490603 0.01382136 -0.10071997 0.0053636436 -0.033814702 0.004094518 0.11347703
0.031072784 -0.10940054 0.031021714 0.11107831 -0.034435373 0.031970173 0.026782027 0.04804732
0.038212925 -0.052211504 -0.10191022 -0.11267828 0.04181727 -0.027378732 0.030357368 0.053793676
0.11794992 0.08258079 -0.0356225 -0.014373512 -0.02271635 0.029915215 0.08961555 -0.08764338
0.10602645 -0.042347644 -0.119254045 -0.111910634 -0.103909165 0.1132392 0.119721726 0.12142493
0.123303354 -0.1257242 0.043939423 0.085841306 -0.020836376 -0.06485942 -0.006692096 0.030915977
0.108266 0.030035833 -0.04156149 -0.051665798 0.061680455 0.103818424 -0.065554984 -0.08954858
0.062188387 -0.035235304 0.012338867 0.091322064 0.06706926 0.015658228 0.11212134 -0.00027452904
-0.0027836924 -0.048877962 -0.025456045 0.07189816 0.005938566 -0.065547585 -0.044090968 -0.08282523
0.090190776 0.12036985 -0.0701308 0.051533848 -0.0045328536 0.033624917 0.06790692 0.05116324
0.08002123 -0.040230688 0.038067814 0.05393953 0.088871606 -0.09105493 0.07996275 -0.10879372
-0.049752858 -0.00010260659 -0.10655334 0.029215716 0.092343986 -0.07227126 -0.033811238 -0.112425976
-0.011731283 -0.01939819 -0.070509344 0.101293005 -0.00088012626 0.04908771 -0.002674359 -0.0067008687
-0.054703563 -0.0878933 0.0522743 0.058610857 0.11805121 0.057376716 0.016464928 -0.089150295
-0.12672175 0.12028889 0.0219929 -0.0056747273 0.016354581 0.042512566 -0.012192818 -0.12359804
-0.032384694 -0.075116806 0.07847425 0.043173067 0.037227627 0.063963726 -0.052848265 -0.022748454
-0.03158277 0.034818955 -0.06448034 0.039312325 -0.05915845 -0.06389316 -0.079480745 0.09004784
-0.09459868 0.093879886 -0.055220407 -0.05036765 -0.03306338 -0.08186529 0.013785815 -0.08775295
0.03183448 -0.07759867 0.09275927 0.09175071 0.11545164 -0.07780754 -0.07535657 0.05675378
0.0018189874 0.006074419 -0.10122761 0.05509465 0.047549866 0.10102451 0.00815625 0.07169577
0.08365292 0.088984065 -0.029179715 -0.06612512 -0.078158244 -0.030843522 0.0029855936 -0.10052316
0.069976166 -0.055762853 0.026578233 0.0112496335 0.088836715 0.030671207 0.06534448 0.043258652
-0.08974272 -0.063401535 0.07956369 0.044213906 0.06627628 -0.055714294 0.09702432 -0.0873088
0.12614655 0.011907262 0.03532156 -0.08290613 0.10004878 0.026569922 -0.10627219 0.00028425583
-0.01901674 0.04820924 -0.06147865 0.06038229 -0.08374177 0.012983701 0.05000018 0.0060976334
-0.0010192608 -0.07721127 0.05396826 0.121691994 -0.029513452 0.1149728 -0.10484119 -0.11343135
-0.019094994 -0.0882182 -0.082537845 0.019718464 0.030585717 -0.09577027 -0.10675535 0.050877757
0.032553326 -0.031746585 0.0329021 0.051288538 -0.0465584 0.048492897 -0.018090714 -0.041938223
0.0010388597 -0.050762065 -0.115765415 -0.08261724 -0.023832494 0.037746843 0.029682335 -0.09478316
-0.0378869 -0.12117772 0.05673645 0.068182506 -0.104108855 0.0131849935 -0.06683365 -0.07269399
-0.082501605 0.11199935 -0.11827406 0.057462614 -0.07959525 0.11493225 -0.038151942 -0.11683028
-0.052862927 0.07729004 0.030576961 -0.07207632 0.041932926 -0.061121143 -0.08186952 0.032853894
00000000: 877f 7dbc 63ef 373d fc72 623c 4646 cebd
00000010: 81c1 af3b 4981 0abd 4e2b 863b a566 e83d
00000020: 5a8c fe3c 640d e0bd 4021 fe3c 067d e33d
00000030: 1b0c 0dbd 28f3 023d fb65 db3c 44cd 443d
00000040: 2885 1c3d bbdb 55bd 4eb6 d0bd dfc3 e6bd
00000050: 9648 2b3d 5d49 e0bc 04b0 f83c c256 5c3d
00000060: ba8f f13d 1e20 a93d e6e8 11bd e17e 6bbc
00000070: a417 babc c110 f53c 5c88 b73d 5f7e b3bd
00000080: 6524 d93d b974 2dbd 773b f4bd 6731 e5bd
00000090: 54ce d4bd f4e9 e73d aa30 f53d a2ad f83d
000000a0: 7886 fc3d d8bd 00be d3f9 333d 91cd af3d
000000b0: 0cb1 aabc 04d5 84bd 5f49 dbbb 8143 fd3c
000000c0: 91ba dd3d b50d f63c 623c 2abd 849f 53bd
000000d0: a5a4 7c3d c19e d43d b141 86bd 3f65 b7bd
000000e0: 40b9 7e3d e552 10bd f628 4a3c 1007 bb3d
000000f0: 9c5b 893d af45 803c e09f e53d aaee 8fb9
00000100: 9c6e 36bb 4234 48bd 3289 d0bc 583f 933d
00000110: 4d98 c23b d03d 86bd bb98 34bd 46a0 a9bd
00000120: f1b5 b83d 7884 f63d bda0 8fbd 2815 533d
00000130: 5588 94bb 48ba 093d c912 8b3d 8c90 513d
00000140: 2ce2 a33d efc8 24bd ffec 1b3d b2ef 5c3d
00000150: 5102 b63d 027b babd 83c3 a33d 3ecf debd
00000160: a7c9 4bbd 7e2e d7b8 a338 dabd cc55 ef3c
00000170: d81e bd3d f402 94bd a77d 0abd 973f e6bd
00000180: 9134 40bc f4e8 9ebc 3467 90bd b572 cf3d
00000190: 46b8 66ba 3210 493d 4c44 2fbb f692 dbbb
000001a0: d810 60bd 6701 b4bd 941d 563d f011 703d
000001b0: d5c4 f13d d903 6b3d 75e1 863c 6e94 b6bd
000001c0: 59c3 01be 065a f63d 742a b43c 10f3 b9bb
000001d0: 0bfa 853c a821 2e3d 63c4 47bc f820 fdbd
000001e0: d0a5 04bd d7d6 99bd 1cb7 a03d 3ed6 303d
000001f0: ff7b 183d 6aff 823d 6c77 58bd f75a babc
00000200: ef5c 01bd 529e 0e3d 450e 84bd f605 213d
00000210: 2250 72bd 6bda 82bd cdc6 a2bd 006b b83d
00000220: f4bc c1bd 1944 c03d cb2e 62bd 4f4e 4ebd
00000230: 776d 07bd fda8 a7bd e6dd 613c d2b7 b3bd
00000240: df64 023d 0dec 9ebd 92f8 bd3d cce7 bb3d
00000250: e971 ec3d 8f59 9fbd 8c54 9abd a776 683d
00000260: 176b ee3a eb0b c73b 6c50 cfbd edaa 613d
00000270: a6c3 423d f0e5 ce3d cba1 053c 3bd5 923d
00000280: 3952 ab3d 473d b63d 4c0a efbc 9b6c 87bd
00000290: 6e11 a0bd 8eab fcbc f3a9 433b 16df cdbd
000002a0: aa4f 8f3d 9767 64bd 98ba d93c 6250 383c
000002b0: 06f0 b53d 2f42 fb3c 54d3 853d fc2f 313d
000002c0: 08cb b7bd aad8 81bd 4af2 a23d a419 353d
000002d0: dcbb 873d ac34 64bd b0b4 c63d f5ce b2bd
000002e0: 902c 013e ad16 433c 57ad 103d b0ca a9bd
000002f0: 60e6 cc3d 2aa9 d93c 3ca5 d9bd 2c08 9539
00000300: ffc8 9bbc 0d77 453d 09d1 7bbd 6c53 773d
00000310: ce80 abbd 97b9 543c fdcc 4c3d a8ce c73b
00000320: b898 85ba f120 9ebd d20d 5d3d a739 f93d
00000330: 32c6 f1bc dc76 eb3d fab6 d6bd b24e e8bd
00000340: 1b6d 9cbc beab b4bd 9a09 a9bd 9e88 a13c
00000350: e68e fa3c 3423 c4bd 8da2 dabd 3265 503d
00000360: a356 053d b508 02bd 5ac4 063d ee13 523d
00000370: 05b4 3ebd 7da0 463d fa32 94bc 6ac7 2bbd
00000380: 592a 883a e2eb 4fbd 6b16 edbd 3a33 a9bd
00000390: 5d3c c3bc 6f9c 1a3d 5e28 f33c ac1d c2bd
000003a0: 4b2f 1bbd 062c f8bd 7b64 683d 45a3 8b3d
000003b0: 0637 d5bd df05 583c 15e0 88bd 96e0 94bd
000003c0: 9af6 a8bd ea5f e53d ac39 f2bd eb5d 6b3d
000003d0: d602 a3bd 9961 eb3d 3645 1cbd b744 efbd
000003e0: cc86 58bd 3e4a 9e3d 897c fa3c c09c 93bd
000003f0: dcc1 2b3d 2a5a 7abd 35ab a7bd ce91 063d

gcn_norm.weight f4 [64]
0.9973907 1.0026891 0.99815464 1.0007548 1.0048972 1.004513 0.9976693 1.0005155
1.0037585 1.0018507 1.0006835 1.0010504 0.9975421 1.0008726 1.0012732 0.99488866
1.0014019 1.0021861 0.9983012 0.99866766 0.99757737 1.0025864 1.0006536 1.0006045
1.0008523 1.0040172 1.0020069 0.9990456 1.0036262 1.0031844 1.0005325 1.0006561
0.99862736 0.9963678 1.0014867 0.9939263 0.99818385 0.99942535 1.0002618 0.9972451
0.999156 0.99510336 1.0011829 0.9974123 1.0045589 1.0000049 1.006761 1.0044609
1.0010892 1.0038712 0.9956841 1.0063354 0.99823374 0.9984806 1.0045053 0.9939075
0.99959624 0.9991947 0.9992511 1.0051153 0.99873143 1.0004812 0.9986169 1.0052128
00000000: ff54 7f3f 1e58 803f 1087 7f3f bc18 803f
00000010: 79a0 803f e293 803f 4167 7f3f e410 803f
00000020: 297b 803f a53c 803f 6616 803f 6b22 803f
00000030: eb5e 7f3f 981c 803f b829 803f 06b1 7e3f
00000040: f02d 803f a247 803f ab90 7f3f afa8 7f3f
00000050: 3b61 7f3f c054 803f 6b15 803f cf13 803f
00000060: ee1b 803f a383 803f c341 803f 74c1 7f3f
00000070: d376 803f 5968 803f 7311 803f 8015 803f
00000080: 0ba6 7f3f f611 7f3f b730 803f f471 7e3f
00000090: fa88 7f3f 57da 7f3f 9408 803f 744b 7f3f
000000a0: b0c8 7f3f 18bf 7e3f c326 803f 6a56 7f3f
000000b0: 6395 803f 2900 803f 8bdd 803f 2d92 803f
000000c0: b123 803f da7e 803f 27e5 7e3f 99cf 803f
000000d0: 3f8c 7f3f 6d9c 7f3f a193 803f b970 7e3f
000000e0: 8ae5 7f3f 39cb 7f3f ecce 7f3f 9ea7 803f
000000f0: ddac 7f3f c50f 803f 5ba5 7f3f d0aa 803f

gcn_norm.bias f4 [64]
0.0031194834 -0.004210916 -0.002285403 -0.001244471 0.0057720738 -0.0033260249 -0.0021029464 -0.0010926395
0.001556088 -0.0020344139 0.002974867 -0.0028756412 0.008559581 0.0034794044 -0.0024535954 -0.006579579
-0.0026101882 -0.0016180881 -0.0020318928 -0.0020291687 0.0017387716 0.0015843363 0.0035929703 -0.0027586655
0.0044641746 0.0024275368 8.58765e-05 -0.0048506227 -0.0020382188 0.003320822 0.00035285068 0.0014550979
0.0006842339 -0.0020893824 0.001052176 0.005833792 0.0005891971 0.0011929868 -0.0051678033 -0.0022021304
-0.00060459605 0.0027380567 0.0036507822 -0.00084435154 -0.009417628 -0.00049370475 0.0043913745 -0.0027738449
0.0036306956 0.0037181254 -0.000833262 -0.00839256 -0.0028992086 -0.0012908706 0.0042420016 0.006692479
9.195651e-05 -0.005250866 -0.0032922067 -0.0028671795 -0.0021911252 -0.0012794255 0.004171101 0.0060196216
00000000: 3f70 4c3b b9fb 89bb b3c6 15bb 841d a3ba
00000010: aa23 bd3b 70f9 59bb 96d1 09bb e636 8fba
00000020: a6f5 cb3a cd53 05bb fcf5 423b 4175 3cbb
00000030: 7c3d 0c3c b806 643b 80cc 20bb 8299 d7bb
00000040: b10f 2bbb 0716 d4ba 8129 05bb cdfb 04bb
00000050: 7ee7 e33a 81a9 cf3a 0a78 6b3b baca 34bb
00000060: 3648 923b 4f17 1f3b 9818 b438 f9f1 9ebb
00000070: a393 05bb 26a2 593b d1fe b839 fcb8 be3a
00000080: 295e 333a 05ee 08bb 2be9 893a 6529 bf3b
00000090: 5974 1a3a ff5d 9c3a ad56 a9bb 9e51 10bb
000000a0: c17d 1eba f870 333b f641 6f3b 7957 5dba
000000b0: 654c 1abc f76b 01ba 85e5 8f3b 65c9 35bb
000000c0: f7f0 6d3b cbab 733b 446f 5aba f380 09bc
000000d0: a600 3ebb 6e32 a9ba 7d00 8b3b 954c db3b
000000e0: c6d8 c038 750f acbb 10c2 57bb 4ae7 3bbb
000000f0: fb98 0fbb 65b2 a7ba bbad 883b 3f40 c53b

layers.0.norm1.weight f4 [64]
0.9970101 0.9987349 0.99536246 1.0017421 1.0041375 1.00054 0.9995196 0.99747276
0.99961805 1.0011384 1.003145 1.0024935 0.9999283 1.0014607 0.99948466 0.99872464
0.99623257 0.99893093 0.9994019 0.997129 1.0028781 0.99946594 1.0002004 1.0010433
0.99717396 1.0012631 0.99689555 0.99889237 0.99835724 1.0060577 0.99885094 1.0000947
0.999571 1.0006698 0.99897504 1.0064322 0.99958783 1.0024866 0.9983898 0.99244034
1.0044893 0.99688923 0.99221975 0.9971304 0.9957044 1.0033573 1.0003041 0.99777734
0.99273926 1.0010933 1.000056 1.0002874 1.0055729 0.99413174 0.99806666 0.99840397
0.9968302 0.9996992 1.0002375 0.9968566 0.99823207 0.99845123 0.9948419 1.000822
00000000: 0e3c 7f3f 17ad 7f3f 13d0 7e3f 1639 803f
00000010: 9487 803f b211 803f 84e0 7f3f 605a 7f3f
00000020: f8e6 7f3f 4e25 803f 0e67 803f b551 803f
00000030: 4dfb 7f3f dd2f 803f 3ade 7f3f 6bac 7f3f
00000040: 1909 7f3f f0b9 7f3f ced8 7f3f d943 7f3f
00000050: 4f5e 803f 00dd 7f3f 9106 803f 3022 803f
00000060: cb46 7f3f 6429 803f 8c34 7f3f 69b7 7f3f
00000070: 5794 7f3f 80c6 803f b2b4 7f3f 1a03 803f
00000080: e3e3 7f3f f315 803f d4bc 7f3f c5d2 803f
00000090: fde4 7f3f 7b51 803f 7996 7f3f 9210 7e3f
000000a0: 1b93 803f 2234 7f3f 1d02 7e3f f043 7f3f
000000b0: 7ce6 7e3f 036e 803f f709 803f 566e 7f3f
000000c0: 2924 7e3f d323 803f d601 803f 6b09 803f
000000d0: 9db6 803f 6b7f 7e3f 4c81 7f3f 6797 7f3f
000000e0: 4430 7f3f 49ec 7f3f c807 803f fe31 7f3f
000000f0: 238c 7f3f 809a 7f3f f5ad 7e3f ef1a 803f

layers.0.norm1.bias f4 [64]
0.0022718199 0.0013971394 -0.0029226711 -0.0016859279 0.0057603624 -0.0003135996 -0.0006866898 -0.0032600383
-0.003165703 -0.0033519496 -0.0032637333 -0.0031159944 -0.0030671016 0.002284425 -0.0018298512 -0.0013981201
0.0035400323 -5.6672474e-05 -0.0006738554 0.0038105228 -0.0014852892 -0.0004932454 0.0016779951 -0.0016891331
-0.0026916724 0.00078106986 -0.0031123688 -0.00021635286 -0.00045843885 0.007353327 0.0013557199 0.0013997948
0.00035742723 -0.0024473334 -0.0020062516 -0.0069265924 -0.00018931206 0.00043970853 0.001466991 -0.0020370076
-0.005188273 -0.0012536119 -0.0074345847 -0.0028765074 -5.4328306e-05 -0.00086422486 0.0008293441 -0.0022077688
-0.0013065758 0.0009635021 0.0007850799 -0.00034029962 0.004566438 -0.003413985 -0.0031732866 0.0037899942
-0.0019164444 0.00021844725 -0.003524622 6.896869e-05 -0.0019233356 -0.0032987155 -0.0042206976 0.0018407495
00000000: d0e2 143b 3820 b73a 498a 3fbb 5afa dcba
00000010: 6cc1 bc3b a06a a4b9 f902 34ba 5ea6 55bb
00000020: af77 4fbb 62ac 5bbb 5ce4 55bb b635 4cbb
00000030: 6d01 49bb 4bb6 153b 9ed7 efba 2041 b7ba
00000040: e3ff 673b 9bb3 6db8 aca5 30ba f7b9 793b
00000050: 09ae c2ba 234d 01ba 2cf0 db3a e765 ddba
00000060: c566 30bb b6c0 4c3a e2f8 4bbb c7dc 62b9
00000070: 9f5a f0b9 2df4 f03b 69b2 b13a 5279 b73a
00000080: 1265 bb39 7163 20bb 517b 03bb 78f8 e2bb
00000090: 1282 46b9 ae88 e639 0d48 c03a 517f 05bb
000000a0: 6302 aabb 3c50 a4ba d19d f3bb c983 3cbb
000000b0: 93de 63b8 268d 62ba 5768 593a 37b0 10bb
000000c0: 6941 abba 8893 7c3a d2cd 4d3a 3e6a b2b9
000000d0: 0fa2 953b 2abd 5fbb eaf6 4fbb 8d61 783b
000000e0: 3431 fbba fd0e 6539 58fd 66bb 49a3 9038
000000f0: 6f18 fcba 432f 58bb c74d 8abb 4e45 f13a

layers.0.attn.beta f4 [1, 2, 1, 1]
0.9694172 0.9645626
00000000: ba2b 783f 93ed 763f

layers.0.attn.qkv.weight f4 [192, 64]
0.103939444 -0.052903358 -0.07470996 -0.04293607 0.08560465 0.045237135 0.010470636 0.112611204
-0.10638244 -0.04402969 0.09253785 -0.07890425 0.045613676 0.027092492 0.042899113 0.0754491
-0.045066897 -0.1129748 0.052333154 0.030118098 0.031843197 0.00519419 -0.050957292 -0.044606015
0.019336915 0.06527034 -0.09842528 0.06939208 0.03512936 0.011514617 -0.005780875 0.08068322
-0.11356567 0.039999317 -0.027212568 0.0015550898 -0.09233798 0.027178975 -0.05628247 0.0066563413
-0.025347378 -0.097008675 -0.002590904 0.011921278 0.07101906 -0.0444963 0.11692112 -0.09919701
-0.061138093 0.08483981 -0.00027732496 0.005522743 0.11379152 -0.118776254 0.109011434 -0.07494806
-0.100774944 0.034815155 -0.07974876 0.06676857 0.014551934 -0.104181595 0.099152915 -0.077738754
-0.019899389 0.083781175 -0.117926694 0.06779639 -0.017534249 -0.10770391 -0.021497143 -0.026295349
0.082638584 -0.09821663 -0.09904402 -0.024314746 0.11958281 -0.085376084 -0.058529325 0.073328756
0.004364303 0.10762038 0.033030048 -0.012812507 0.0112928115 -0.02072623 0.013477601 0.11411904
-0.033355787 -0.015580637 0.019823983 0.048443053 -0.020184157 0.09745717 -0.0752412 -0.007423229
0.03309879 -0.0737609 0.083823316 0.06559682 -0.08735828 0.0756112 0.018121418 -0.12420068
0.11547189 0.017222006 -0.0012946086 -0.012553187 -0.06835274 -0.11834653 -0.10888225 -0.08835697
0.057658687 0.119398504 -0.11553244 0.082015015 0.019486442 -0.11982714 -0.019555075 -0.10467545
-0.014496066 0.054885816 -0.07510517 0.071228266 0.07081114 -0.045122877 0.0022429435 0.012938863
-0.09613352 0.08218365 0.047258276 -0.08100049 0.11376619 0.10649825 0.07116387 0.10424395
-0.04776579 -0.008040517 -0.07168113 -0.04642734 0.061163153 -0.10994026 0.10052553 -0.0041002766
-0.09924509 0.04123255 0.08552178 0.08566464 -0.104766086 0.052430414 -0.08772002 0.08310569
0.070481494 0.093072966 -0.07044485 0.07449391 0.10202971 -0.09149769 -0.016288916 -0.05161816
-0.11678787 0.071768664 -0.08320961 -0.12096233 -0.09815998 0.06653985 -0.10167682 -0.110483944
0.014371506 -0.07238288 -0.049568154 -0.05468901 -0.116555884 -0.08131983 -0.056774136 0.090153486
-0.06293721 -0.03064044 0.064129226 0.06053483 -0.042992998 0.12113867 -0.09713963 -0.0697086
0.124734074 0.024473412 -0.06467142 -0.019727174 -0.071831994 -0.01990447 -0.091088325 -0.01715039
0.0362414 -0.021086836 -0.08822739 0.123524435 -0.026093729 0.101284645 0.008222342 -0.004960887
-0.1034846 0.087195344 0.04975728 -0.09367272 0.020140387 0.037258588 0.05450597 0.1070916
-0.08901957 0.091179855 0.1013682 -0.09270342 0.1178753 0.042884417 -0.027031595 -0.09832006
-0.09242868 -0.08967523 -0.054267723 0.07758938 0.028451301 0.024660626 0.056708373 -0.051693015
0.061228886 -0.045456506 0.005565755 -0.12482242 0.112701796 0.07190123 0.11524256 0.027274359
0.04046106 -0.059257966 -0.0014759942 -0.06857959 -0.013022303 -0.10571472 -0.12313933 -0.031509582
-0.031168627 0.08697274 -0.025047533 -0.026526755 -0.054346725 0.040464032 -0.12533228 0.017395467
0.12053973 0.033164136 -0.102252245 -0.030460821 -0.03446387 0.07735268 -0.02048297 0.06337677
00000000: 34de d43d 31b1 58bd 8901 99bd bcdd 2fbd
00000010: 7e51 af3d 934a 393d 088d 2b3c b4a0 e63d
00000020: 09df d9bd 7a58 34bd 7c84 bd3d 8d98 a1bd
00000030: 68d5 3a3d 13f1 dd3c fbb6 2f3d 0f85 9a3d
00000040: 1198 38bd 555f e7bd 4a5b 563d 3bba f63c
00000050: 036e 023d 0634 aa3b 98b8 50bd ccb4 36bd
00000060: 7368 9e3c 75ac 853d 3193 c9bd 6f1d 8e3d
00000070: cee3 0f3d cea7 3c3c 7f6d bdbb 3e3d a53d
00000080: 1e95 e8bd 53d6 233d e4ec debc 28d4 cb3a
00000090: b21b bdbd 71a6 de3c 7288 66bd 701d da3b
000000a0: 4ea5 cfbc 7cac c6bd 28cc 29bb 7751 433c
000000b0: 7172 913d c141 36bd 5774 ef3d cd27 cbbd
000000c0: f06b 7abd 7fc0 ad3d ed65 91b9 20f8 b43b
000000d0: 870b e93d f740 f3bd 6341 df3d 5e7e 99bd
000000e0: 1863 cebd 569a 0e3d 5153 a3bd f6bd 883d
000000f0: 3c6b 6e3c 295d d5bd af10 cb3d 7f35 9fbd
00000100: 0b04 a3bc 7795 ab3d 8d83 f1bd d5d8 8a3d
00000110: fca3 8fbc de93 dcbd c71a b0bc 5869 d7bc
00000120: 6b3e a93d cd25 c9bd 97d7 cabd b82f c7bc
00000130: d5e7 f43d a8d9 aebd 72bc 6fbd 632d 963d
00000140: 6d02 8f3b 1368 dc3d 844a 073d 8deb 51bc
00000150: 7c05 393c 0eca a9bc 28d1 5c3c 3eb7 e93d
00000160: 14a0 08bd ee45 7fbc e865 a23c 396c 463d
00000170: 3f59 a5bc a097 c73d 0f18 9abd 8f3e f3bb
00000180: 9992 073d f40f 97bd 8fab ab3d a057 863d
00000190: e6e8 b2bd 0bda 9a3d 5e73 943c ed5c febd
000001a0: 877c ec3d 2a15 8d3c dbaf a9ba e2ab 4dbc
000001b0: 85fc 8bbd aa5f f2bd a8fd debd 80f4 b4bd
000001c0: 842b 6c3d 3487 f43d 469c ecbd 7df7 a73d
000001d0: 08a2 9f3c ee67 f5bd f731 a0bc 1560 d6bd
000001e0: e880 6dbc f3cf 603d bdd0 99bd 20e0 913d
000001f0: 6e05 913d c4d2 38bd 59fe 123b 86fd 533c
00000200: a7e1 c4bd e74f a83d e591 413d 96e3 a5bd
00000210: 40fe e83d c11b da3d 5dbe 913d da7d d53d
00000220: 10a6 43bd 5fbc 03bc 8ecd 92bd 982a 3ebd
00000230: 3786 7a3d 5c28 e1bd 54e0 cd3d 9d5b 86bb
00000240: 0241 cbbd 76e3 283d 0b26 af3d f170 af3d
00000250: 9a8f d6bd 46c1 563d 8ea6 b3bd 5133 aa3d
00000260: 9a58 903d 0a9d be3d 6445 90bd 4390 983d
00000270: f4f4 d03d 2463 bbbd 5570 85bc 906d 53bd
00000280: 7b2e efbd 73fb 923d cd69 aabd 19bb f7bd
00000290: 1908 c9bd 0b46 883d f03b d0bd 6845 e2bd
000002a0: 7776 6b3c 7a3d 94bd fa07 4bbd 9501 60bd
000002b0: dab4 eebd 038b a6bd ff8b 68bd 64a2 b83d
000002c0: 39e5 80bd a901 fbbc 2f56 833d 5ff3 773d
000002d0: 6d19 30bd 8d17 f83d 24f1 c6bd 62c3 8ebd
000002e0: 9474 ff3d 777c c83c 7372 84bd e29a a1bc
000002f0: a71c 93bd b30e a3bc 848c babd fa7e 8cbc
00000300: dd71 143d 4dbe acbc 90b0 b4bd 61fa fc3d
00000310: 84c2 d5bc 536e cf3d 00b7 063c f08e a2bb
00000320: bcef d3bd 7993 b23d 4ace 4b3d 7cd7 bfbd
00000330: 74fd a43c 769c 183d a741 5f3d d752 db3d
00000340: e44f b6bd 81bc ba3d 219a cf3d 4adb bdbd
00000350: 9b68 f13d 92a7 2f3d 5d71 ddbc 075c c9bd
00000360: 3f4b bdbd a6a7 b7bd d547 5ebd 2ee7 9e3d
00000370: b412 e93c 1505 ca3c 0a47 683d 0ebc 53bd
00000380: 24cb 7a3d 9a30 3abd f060 b63b e6a2 ffbd
00000390: 33d0 e63d f440 933d 4b04 ec3d 7a6e df3c
000003a0: 7fba 253d 7bb8 72bd 2676 c1ba 7573 8cbd
000003b0: 7f5b 55bc f680 d8bd 7930 fcbd 3110 01bd
000003c0: 5955 ffbc c41e b23d 7c30 cdbc a34e d9bc
000003d0: ac9a 5ebd 9dbd 253d 1b57 00be f080 8e3c
000003e0: 89dd f63d 1ed7 073d a069 d1bd f988 f9bc
000003f0: fd29 0dbd 156b 9e3d e7cb a7bc aecb 813d

layers.0.attn.proj.weight f4 [64, 64]
0.016554736 -0.082004696 -0.060356487 -0.047992077 0.026782228 0.10990021 -0.05550545 0.10342698
-0.081970245 0.041546736 0.08353356 -0.09294201 -0.10921802 0.02489253 0.052734222 0.07422747
-0.12095479 -0.10979143 -0.09447911 -0.08895252 0.036912207 0.09037056 0.0373121 0.055567965
0.04466293 0.05462625 0.11576595 0.08113477 0.096401036 0.03858338 -0.07612266 0.039571494
-0.06494403 0.013055595 -0.023637107 0.11206106 0.09100479 -0.11930712 -0.09020156 0.029973056
0.04440906 -0.020451758 0.09702952 -0.10284045 0.0055683083 -0.035983473 0.036516037 0.09117888
0.078282714 0.11952616 -0.055082064 0.03493064 -0.04326318 0.099690616 0.06337803 0.0119440565
-0.059739914 0.07810765 0.12585449 -0.03735273 0.089263335 -0.06992538 0.06647379 0.010094218
0.0005874557 -0.033209544 0.12848647 -0.06302341 0.0664698 0.077203244 0.09776203 -0.004810954
-0.08923021 -0.09401203 -0.031695176 -0.081876405 0.08067254 0.08164624 0.03397611 0.119146
0.026399171 -0.039877605 -0.04970617 0.105320394 -0.08610461 0.07261165 0.10174963 0.06277288
0.049495537 0.013922133 -0.039990637 0.06617107 -0.08356541 -0.016423373 0.04449562 -0.11777143
-0.077551365 -0.059337646 -0.0139629785 -0.08167102 -0.039990585 0.000726408 0.004115993 0.08738497
-0.056070015 0.058007713 0.10343207 0.08267145 -0.019410873 -0.10013132 0.116423205 -0.03277992
0.030287715 0.04467212 0.12513752 0.010520518 0.06800244 -0.06896613 -0.100749366 0.0068590837
0.10452323 0.044532824 0.06120603 -0.086860634 0.08370725 -0.10233014 -0.030071927 -0.058975868
0.10912348 0.0033855762 0.019412084 -0.11962928 0.019656593 -0.103095755 -0.07191237 0.090464324
0.034185886 0.112762116 0.098252594 0.046470247 0.109973595 0.023828883 0.049874455 0.090165265
-0.07220444 -0.049562246 -0.024192939 0.057926748 0.076494075 -0.013330213 0.075337775 -0.06909946
-0.11673257 -0.103607185 -0.049354263 -0.0913685 0.07972411 0.07656076 -0.011921962 -0.04213653
0.017530838 0.09119424 -0.01725252 -0.09058525 -0.015691184 0.10062667 -0.09762581 0.095717855
-0.0052752956 -0.11824214 -0.10996364 0.023756001 0.027413553 -0.003531069 -0.12182376 -0.060339782
-0.026953552 -0.099826366 0.062996194 0.06504411 0.049393833 0.0064712735 0.12731175 -0.02373436
0.111377366 0.01632434 0.12828414 0.11121086 0.12142138 0.04311742 0.07165657 0.005356134
-0.014943046 -0.055667944 0.00087936013 -0.019506365 -0.069041766 0.06058048 0.06093746 0.10051755
0.093349054 0.035250034 0.056997634 -0.028765352 0.0891872 0.044343013 0.09249756 0.09754608
-0.056022532 0.047949295 0.042985816 -0.06599171 0.009140031 0.08967616 0.0873637 0.06746098
-0.051999334 0.027632635 0.080039114 -0.11813649 -0.027106319 -0.092650056 -0.014995011 0.0020417166
0.10496166 0.06467269 -0.113125205 0.014164151 -0.08106912 0.035935115 -0.04243666 0.08393758
0.06127771 -0.074357726 -0.011145084 -0.08601917 0.0700703 0.076335706 0.08176001 0.07495226
-0.0886977 0.089168824 -0.05553816 -0.030057894 -0.06465212 -0.02567327 0.07048095 -0.10910034
-0.015622916 -0.026282396 -0.007710678 -0.02040469 0.102844715 0.077159174 0.053770933 -0.09801438
00000000: cc9d 873c 14f2 a7bd 5d38 77bd 5793 44bd
00000010: 6766 db3c 5c13 e13d af59 63bd 86d1 d33d
00000020: 04e0 a7bd e92c 2a3d a513 ab3d 6158 bebd
00000030: b3ad dfbd 6beb cb3c d7ff 573d 9204 983d
00000040: 25b7 f7bd 54da e0bd 437e c1bd bd2c b6bd
00000050: 4131 173d 3314 b93d 93d4 183d 3c9b 633d
00000060: 7af0 363d c6bf 5f3d b316 ed3d fc29 a63d
00000070: e86d c53d 9b09 1e3d 32e6 9bbd b815 223d
00000080: 6001 85bd 22e7 553c 9ba2 c1bc 4580 e53d
00000090: b860 ba3d 4b57 f4bd 98bb b8bd 0e8a f53c
000000a0: 46e6 353d 728a a7bc 6ab7 c63d 049e d2bd
000000b0: 5b76 b63b 6863 13bd d791 153d febb ba3d
000000c0: b052 a03d 22ca f43d bb9d 61bd 6e13 0f3d
000000d0: bb34 31bd 982a cc3d 57cc 813d 01b1 433c
000000e0: d7b1 74bd e7f6 9f3d 00e0 003e 2dff 18bd
000000f0: b2cf b63d 0a35 8fbd 6923 883d 3862 253c
00000100: 7cff 193a bb06 08bd f591 033e 6b12 81bd
00000110: 5221 883d bc1c 9e3d 7637 c83d 35a5 9dbb
00000120: 54be b6bd 6189 c0bd cdd2 01bd d1ae a7bd
00000130: a537 a53d 2536 a73d 892a 0b3d d102 f43d
00000140: 1343 d83c b356 23bd b298 4bbd 38b2 d73d
00000150: 9d57 b0bd 6bb5 943d 1c62 d03d 118f 803d
00000160: d5bb 4a3d a819 643c 39cd 23bd b384 873d
00000170: 5724 abbd 4f8a 86bc 0a41 363d 2632 f1bd
00000180: 40d3 9ebd 080c 73bd fac4 64bc 2343 a7bd
00000190: 2bcd 23bd 6a6c 3e3a 74df 863b e4f6 b23d
000001a0: aca9 65bd 7f99 6d3d 31d4 d33d a64f a93d
000001b0: 8d03 9fbc a611 cdbd 4a6f ee3d 3d44 06bd
000001c0: f11d f83c 1dfa 363d 0d24 003e 405e 2c3c
000001d0: dd44 8b3d 1d3e 8dbd af55 cebd 2ac2 e03b
000001e0: 4610 d63d 0d68 363d 2db3 7a3d fde3 b1bd
000001f0: b56e ab3d 7792 d1bd 6759 f6bc ae90 71bd
00000200: 227c df3d 8be0 5d3b 1706 9f3c 3200 f5bd
00000210: dd06 a13c de23 d3bd cb46 93bd 5c45 b93d
00000220: 8006 0c3d d3ef e63d a838 c93d 9657 3e3d
00000230: d639 e13d ca34 c33c 2849 4c3d 91a8 b83d
00000240: ecdf 93bd c801 4bbd 4530 c6bc 9944 6d3d
00000250: eda8 9c3d f766 5abc b14a 9a3d 0584 8dbd
00000260: 7c11 efbd 0130 d4bd b227 4abd 681f bbbd
00000270: 6546 a33d e3cb 9c3d 5554 43bc 5b97 2cbd
00000280: d59c 8f3c 0cc4 ba3d 2855 8dbc c284 b9bd
00000290: cc8a 80bc 5b15 ce3d 0af0 c7bd b907 c43d
000002a0: 63dc acbb ef28 f2bd 9e34 e1bd f29b c23c
000002b0: 6392 e03c 8269 67bb bc7e f9bd d926 77bd
000002c0: b2cd dcbc c471 ccbd 2604 813d d935 853d
000002d0: 3051 4a3d fa0c d43b 035e 023e 8f6e c2bc
000002e0: d119 e43d 9fba 853c eb5c 033e 85c2 e33d
000002f0: c6ab f83d e49b 303d aec0 923d 8282 af3b
00000300: add3 74bc 1204 64bd dc84 663a d0cb 9fbc
00000310: c565 8dbd 3d23 783d 8f99 793d 25dc cd3d
00000320: ca2d bf3d 5762 103d 5a76 693d 51a5 ebbc
00000330: c7a7 b63d 05a1 353d 5c6f bd3d 3dc6 c73d
00000340: e277 65bd 7b66 443d e511 303d a926 87bd
00000350: 12c0 153c 22a8 b73d bdeb b23d fb28 8a3d
00000360: 41fd 54bd d65d e23c 8ceb a33d 8bf1 f1bd
00000370: 120e debc 50bf bdbd a2ad 75bc 52ce 053b
00000380: 24f6 d63d 1e73 843d 30ae e7bd c110 683c
00000390: 9107 a6bd b330 133d 10d2 2dbd 77e7 ab3d
000003a0: 56fe 7a3d dd48 98bd df99 36bc d22a b0bd
000003b0: 0481 8f3d e555 9c3d cb71 a73d 9280 993d
000003c0: 24a7 b5bd 259e b63d fb7b 63bd f93b f6bc
000003d0: 5568 84bd c050 d2bc 5158 903d 0070 dfbd
000003e0: 42f7 7fbc 2e4e d7bc dba9 fcbb bd27 a7bc
000003f0: 40a0 d23d a105 9e3d e93e 5c3d c3bb c8bd

layers.0.norm2.weight f4 [64]
0.9907262 0.999197 1.0017817 0.9954711 1.0049162 1.0001429 1.0072706 1.000599
0.99448854 0.9974425 0.9984739 0.99085194 0.99704915 1.0073154 0.9988101 0.9985409
1.0017843 0.9984181 0.99780226 1.0026877 0.99208426 1.0064837 0.9977621 1.0011272
1.0010153 1.0011753 1.002346 0.99684876 1.0014534 1.0011553 1.0019028 0.9983052
0.996966 1.0026952 1.0018624 0.9963209 1.0001385 1.0044483 0.9932191 1.0019667
0.997799 0.99882203 0.9974567 0.99836206 0.99991715 1.0006917 1.0012727 1.0026397
0.9991535 0.9945861 0.9978506 1.0033915 0.99673 0.98714405 1.0035354 0.99786645
1.0002733 0.9995895 1.0015367 1.0053879 1.0008545 0.9980253 1.0005391 0.9993059
00000000: 3ba0 7d3f 60cb 7f3f 623a 803f 32d7 7e3f
00000010: 18a1 803f af04 803f 3eee 803f a113 803f
00000020: cd96 7e3f 6458 7f3f fc9b 7f3f 79a8 7d3f
00000030: 9d3e 7f3f b6ef 803f 05b2 7f3f 60a0 7f3f
00000040: 783a 803f 5498 7f3f f86f 7f3f 1258 803f
00000050: 3cf9 7d3f 75d4 803f 566d 7f3f f024 803f
00000060: 4521 803f 8326 803f e04c 803f 7b31 7f3f
00000070: a02f 803f db25 803f 5a3e 803f ee90 7f3f
00000080: 2a39 7f3f 5158 803f 073d 803f e30e 7f3f
00000090: 8a04 803f c391 803f 9b43 7e3f 7240 803f
000000a0: c16f 7f3f cdb2 7f3f 5359 7f3f a894 7f3f
000000b0: 92fa 7f3f aa16 803f b429 803f 7f56 803f
000000c0: 86c8 7f3f 329d 7e3f 2373 7f3f 226f 803f
000000d0: b329 7f3f 79b5 7c3f d973 803f 2d74 7f3f
000000e0: f508 803f 19e5 7f3f 5b32 803f 8db0 803f
000000f0: 001c 803f 967e 7f3f aa11 803f 83d2 7f3f

layers.0.norm2.bias f4 [64]
0.0036816658 -0.0045213616 0.005659627 0.0007765797 0.0044562817 0.0009773247 0.0067564277 -0.002737486
-0.0070542605 0.0044453517 -0.0017147583 0.00869301 0.0008589591 0.008734698 -0.001181458 -0.003416613
-0.0023471033 0.0034516319 -0.0012668762 -0.001685526 0.006283769 0.0074524474 -0.003995935 -0.0029339558
0.0026262086 0.0007929713 0.0051116347 -0.004697427 -0.0021572742 0.0009386288 -0.0012927543 0.0016167623
0.0029627522 0.00091392326 0.0035243765 0.0010529303 0.0024257852 -0.0037656599 0.0026848533 0.003879874
0.0010662272 0.0016803492 -0.0025379078 -0.0025153947 0.001191096 0.0019216769 8.503992e-05 -0.0001441065
-0.0038624879 -0.0019734437 -0.001822765 0.0031516107 -0.0035407145 -0.007920184 0.0037928643 0.0028568478
-0.0034638904 0.002147398 0.0041585397 -0.0007880883 0.003044326 -0.0022694056 0.0006126551 -0.0023329924
00000000: 1a48 713b ee27 94bb 6474 b93b 6293 4b3a
00000010: 0006 923b 9319 803a 0665 dd3b 6567 33bb
00000020: 6d27 e7bb 50aa 913b bec1 e0ba 206d 0e3c
00000030: c52b 613a fb1b 0f3c 27db 9aba 41e9 5fbb
00000040: dcd1 19bb c634 623b 500d a6ba deec dcba
00000050: 13e8 cd3b a933 f43b 55f0 82bb 9c47 40bb
00000060: 781c 2c3b 67df 4f3a 807f a73b e0ec 99bb
00000070: 0e61 0dbb 500e 763a a371 a9ba 8ae9 d33a
00000080: bc2a 423b 5a94 6f3a 3af9 663b 7a02 8a3a
00000090: ecf9 1e3b 4ac9 76bb 5df4 2f3b 7c45 7e3b
000000a0: a6c0 8b3a 2a3f dc3a 0753 26bb 52d9 24bb
000000b0: 8d1e 9c3a c7e0 fb3a 7657 b238 4b1b 17b9
000000c0: cb21 7dbb e454 01bb d8e9 eeba 418b 4e3b
000000d0: 550b 68bb a9c3 01bc b491 783b f439 3b3b
000000e0: 7002 63bb 5cbb 0c3b 5c44 883b b697 4eba
000000f0: 5183 473b 4fba 14bb 969a 203a 1ee5 18bb

layers.0.ff.0.weight f4 [128, 64]
0.10231569 -0.033376835 -0.087838724 0.022003438 0.064372055 0.037042554 -0.07545351 -0.014794451
0.11971982 0.04110684 -0.09366538 0.10393851 0.10397659 0.064282954 -0.100459985 -0.09112736
0.046445653 -0.04571298 -0.03453367 -0.018118586 0.009925797 0.10470342 0.08853503 -0.07748993
-0.029893167 -0.053025786 0.08460029 0.09259287 0.11262629 0.02574892 0.11926298 0.030066019
0.0009530061 -0.12082792 0.009186999 0.04538852 0.016377142 0.011095116 0.0005335162 0.09304703
-0.08734864 -0.03203413 -0.081258014 0.06851318 0.02599722 0.050094225 0.11345951 -0.10483469
0.11292242 0.023448355 -0.031467926 0.08386078 0.009162464 -0.040731985 0.025503872 0.040794145
-0.027302556 -0.011081539 0.080108024 -0.0052474216 0.04261548 0.121546455 -0.111395486 0.044493042
0.049569484 0.09823115 -0.08133273 0.09535016 -0.009271609 -0.035616986 0.0025910952 0.0461391
0.08889136 -0.07910218 -0.05352896 0.089667924 -0.011835538 0.10219712 -0.04000629 0.09283068
-0.039160132 -0.12429515 0.10517815 0.08590777 0.122476466 -0.10727773 0.09645507 -0.07154064
-0.043904226 0.010089189 -0.014867231 -0.018758753 -0.0046694106 -0.07598257 -0.022626732 -0.06288629
0.07912631 -0.03941149 0.0001866464 0.07208972 -0.058955524 0.030496165 0.06731701 -0.048213374
0.06179209 0.014723326 -0.117355935 -0.0786586 0.07467334 0.080997564 0.053608555 0.0012000231
-0.07008832 0.03492946 0.11763283 0.023749487 -0.074646235 0.085391045 0.0249971 0.032069605
-0.07545246 -0.09455699 0.121023536 -0.053549454 -0.09437712 0.11028256 0.096929185 -0.060043715
0.07808011 0.1012401 -0.08326254 0.0070437524 0.045473013 0.098070264 -0.029954756 -0.043317232
0.040559795 -0.035512373 0.04505204 0.051234294 -0.059403107 -0.100493826 0.027698029 -0.049718544
-0.12132559 -0.027409427 -0.09486646 -0.08309107 -0.08355847 -0.095244765 0.07511303 0.12121285
0.051708337 -0.07090714 -0.11362597 0.050746486 0.022865279 0.01844243 -0.07420039 -0.102474555
-0.047623787 0.012042248 -0.05791777 0.05949847 0.025840182 -0.0015016022 0.02025717 -0.023647599
-0.024039406 0.050567873 0.09441661 0.10761686 0.11303372 0.057209402 -0.02069711 -0.061699342
0.11050167 -0.04038556 -0.012806088 -0.031047968 0.037573252 -0.050913777 0.08752417 0.04609966
0.08753262 0.051593706 0.06550191 0.045385752 0.016045988 -0.07566079 -0.1061295 -0.09818852
0.12362263 -0.12234398 0.010627251 -0.017064476 -0.08363175 0.008787501 -0.07272693 -0.040652897
-0.034653153 -0.12414072 -0.04166272 -0.014726661 0.09568346 0.038848434 0.06921674 -0.050658114
-0.006020051 -0.06578979 0.094519734 0.08837045 0.023790203 0.02337857 -0.028123101 -0.02871434
0.0777265 0.1043267 0.10248118 0.0021702596 -0.07881516 -0.06138196 0.12006512 0.023919329
-0.029694872 0.036572523 0.0013110253 -0.12566523 -0.005144422 0.114774264 -0.11974287 0.0514319
0.08994034 -0.10058956 0.056184333 -0.11519654 -0.049848326 -0.069790766 0.009476815 -0.08270994
0.049678575 -0.08977208 0.060030516 0.08803027 -0.047668245 -0.017861273 0.040736724 -0.09923658
0.08229708 0.029833214 -0.099343315 -0.09231145 0.03360015 0.053995345 0.08427533 -0.10815668
00000000: e38a d13d 26b6 08bd cae4 b3bd 8e40 b43c
00000010: 7fd5 833d efb9 173d 5f87 9abd 6d64 72bc
00000020: aa2f f53d a55f 283d a2d3 bfbd b7dd d43d
00000030: aef1 d43d c8a6 833d f7bd cdbd fba0 babd
00000040: cc3d 3e3d 893d 3bbd 2d73 0dbd 6e6d 94bc
00000050: cf9f 223c bf6e d63d db51 b53d 0ab3 9ebd
00000060: 84e2 f4bc 9131 59bd eb42 ad3d 55a1 bd3d
00000070: 9da8 e63d 66ef d23c 2640 f43d 034d f63c
00000080: 28d3 793a a174 f7bd 1185 163c 50e9 393d
00000090: 5b29 863c 4ac8 353c abdb 0b3a 718f be3d
000000a0: d8e3 b2bd 3836 03bd 9a6a a6bd a350 8c3d
000000b0: 1ff8 d43c 9a2f 4d3d 765d e83d 92b3 d6bd
000000c0: df43 e73d c416 c03c 83e4 00bd 33bf ab3d
000000d0: 291e 163c 95d6 26bd 7fed d03c c317 273d
000000e0: 9ca9 dfbc 588f 35bc ad0f a43d 90f2 abbb
000000f0: 928d 2e3d 59ed f83d 5123 e4bd 563e 363d
00000100: 5f09 4b3d 6a2d c93d c691 a6bd f246 c33d
00000110: f2e7 17bc 1ee3 11bd 5dcf 293b 5afc 3c3d
00000120: ac0c b63d 5300 a2bd 2f41 5bbd d1a3 b73d
00000130: d8e9 41bc b94c d13d a3dd 23bd 031e be3d
00000140: 6066 20bd 758e febd a467 d73d 6af0 af3d
00000150: f1d4 fa3d 6db4 dbbd 3c8a c53d e683 92bd
00000160: ebd4 33bd 204d 253c b095 73bc f5ab 99bc
00000170: db01 99bb c09c 9bbd b25b b9bc 87ca 80bd
00000180: fa0c a23d f16d 21bd 83b6 4339 c6a3 933d
00000190: 597b 71bd 18d3 f93c 80dd 893d 637b 45bd
000001a0: b419 7d3d 1b3a 713c 4f58 f0bd c317 a1bd
000001b0: 56ee 983d 0de2 a53d a594 5b3d 184a 9d3a
000001c0: 778a 8fbd 3212 0f3d 7be9 f03d 498e c23c
000001d0: 20e0 98bd 80e1 ae3d b8c6 cc3c 6b5b 033d
000001e0: d286 9abd 18a7 c1bd 30db f73d ac56 5bbd
000001f0: cb48 c1bd d3db e13d cf82 c63d 66f0 75bd
00000200: 77e8 9f3d f856 cf3d 8d85 aabd 47cf e63b
00000210: e941 3a3d 10d9 c83d ad63 f5bc 696d 31bd
00000220: 0722 263d 6c75 11bd 7d88 383d 0ddb 513d
00000230: ac50 73bd b5cf cdbd fae6 e23c aca5 4bbd
00000240: 8d79 f8bd bc89 e0bc 5949 c2bd a72b aabd
00000250: b420 abbd b00f c3bd dcd4 993d 713e f83d
00000260: 1fcc 533d c337 91bd bcb4 e8bd 8cdb 4f3d
00000270: f74f bb3c 9414 973c 60f6 97bd 2ede d1bd
00000280: 2911 43bd d94c 453c 2f3b 6dbd abb4 733d
00000290: caae d33c 69d1 c4ba 5df2 a53c 9cb8 c1bc
000002a0: 4aee c4bc 4220 4f3d 7f5d c13d 3a66 dc3d
000002b0: 397e e73d 6854 6a3d fc8c a9bc 73b8 7cbd
000002c0: b34e e23d 546b 25bd a0d0 51bc 4f58 febc
000002d0: 69e6 193d f78a 50bd df3f b33d ffd2 3c3d
000002e0: 4d44 b33d ec53 533d de25 863d 69e6 393d
000002f0: e072 833c 0bf4 9abd 6c5a d9bd 1017 c9bd
00000300: dd2d fd3d 7b8f fabd ec1d 2e3c cdca 8bbc
00000310: 1f47 abbd 73f9 0f3c dbf1 94bd a783 26bd
00000320: 77f0 0dbd 7d3d febd 87a6 2abd 1848 71bc
00000330: b1f5 c33d 891f 1f3d 82c1 8d3d e27e 4fbd
00000340: d943 c5bb ccbc 86bd 9093 c13d 91fb b43d
00000350: ace3 c23c 6a84 bf3c 6b62 e6bc 563a ebbc
00000360: 122f 9f3d 3da9 d53d a7e1 d13d ea3a 0e3b
00000370: d869 a1bd a66b 7bbd b4e4 f53d 78f2 c33c
00000380: a942 f3bc 12cd 153d b6d6 ab3a 63ae 00be
00000390: 8a92 a8bb c50e eb3d c03b f5bd 42aa 523d
000003a0: a432 b83d e601 cebd 8b21 663d 2aec ebbd
000003b0: c22d 4cbd 76ee 8ebd a544 1b3c d463 a9bd
000003c0: c37b 4b3d 6dda b7bd 8fe2 753d 3749 b43d
000003d0: c73f 43bd ce51 92bc 8ddb 263d 8c3c cbbd
000003e0: 5f8b a83d c964 f43c 8274 cbbd c90d bdbd
000003f0: 50a0 093d 392a 5d3d 8b98 ac3d 4081 ddbd

layers.0.ff.0.bias f4 [128]
0.09179382 -0.092134394 0.027094861 -0.03907689 0.08510025 0.09897298 -0.0041661733 0.018066544
-0.011101903 -0.02697607 -0.12518588 -0.049918547 0.09749833 0.030179141 0.11347053 0.02636565
-0.0027030678 0.105356485 -0.048947208 -0.09859498 -0.07562234 0.0953757 0.08313465 -0.049442634
0.120694675 0.040140714 -0.105208844 -0.01217746 -0.02711947 -0.0020441476 0.023571242 -0.104040846
-0.018105593 -0.008459181 0.09277389 0.08368641 -0.060917396 -0.06583249 0.04816204 0.038099237
0.05388797 -0.09744623 0.11363991 0.03254647 -0.015100045 -0.025224648 -0.073549375 -0.03972006
-0.067275226 0.10956455 -0.025161197 -0.06837413 0.11607875 -0.029137328 -0.032187503 -0.016896563
-0.0806104 0.078939326 -0.083781175 -0.11898772 0.0697788 0.07436573 0.082759626 0.033983618
-0.09700233 0.035288513 0.029423263 -0.06511435 0.08319803 0.03068478 0.046668787 -0.104611315
-0.12293775 -0.08048817 0.080431744 -0.11809317 -0.12018422 -0.110301234 0.05927932 0.08103859
0.115046725 0.038450643 -0.067883566 -0.013103805 -0.10407627 0.112848885 -0.0061182934 0.014292747
-0.016805489 0.055673223 -0.12394231 0.06322209 -0.039045647 0.049014293 -0.091919184 0.117130995
0.015324625 -0.01797661 0.04666523 -0.086680815 0.092583545 0.08824351 0.059692893 -0.12672466
-0.081964195 -0.026509764 -0.012911597 -0.010614989 0.051809136 0.10075502 0.0057211467 -0.11991796
-0.075791806 -0.073182575 0.05861925 0.018468594 -0.09383916 -0.06539295 -0.030082196 -0.07181717
-0.09414189 -0.11314488 -0.101772405 0.06412126 0.07147362 0.0028928865 -0.07302954 -0.0601989
00000000: 66fe bb3d f5b0 bcbd 0bf6 dd3c 170f 20bd
00000010: 0a49 ae3d 59b2 ca3d 6584 88bb 4a00 943c
00000020: c2e4 35bc ebfc dcbc ba30 00be 6477 4cbd
00000030: 34ad c73d 3f3a f73c 3d63 e83d c7fc d73c
00000040: f425 31bb 24c5 d73d de7c 48bd 2aec c9bd
00000050: e3df 9abd 5654 c33d 8042 aa3d 5c84 4abd
00000060: c52e f73d 976a 243d bc77 d7bd f883 47bc
00000070: a729 debc 1bf7 05bb 7a18 c13c 5e13 d5bd
00000080: 2e52 94bc 6098 0abc 3d00 be3d c863 ab3d
00000090: 8584 79bd 2fd3 86bd 8f45 453d f20d 1c3d
000000a0: a2b9 5c3d e491 c7bd 0bbc e83d 734f 053d
000000b0: 2e66 77bc eca3 cebc 0ea1 96bd 80b1 22bd
000000c0: 98c7 89bd 6163 e03d db1e cebc bc07 8cbd
000000d0: b2ba ed3d 68b1 eebc 0bd7 03bd a96a 8abc
000000e0: 1117 a5bd f1aa a13d 7795 abbd d5af f3bd
000000f0: 30e8 8e3d 0f4d 983d e17d a93d 6832 0b3d
00000100: 28a9 c6bd b08a 103d 0e09 f13c ac5a 85bd
00000110: bb63 aa3d a65e fb3c c527 3f3d 753e d6bd
00000120: c9c6 fbbd fbd6 a4bd 66b9 a43d d5da f1bd
00000130: 2523 f6bd 9de5 e1bd dfce 723d 8ff7 a53d
00000140: 9e9d eb3d 6c7e 1d3d 8a06 8bbd 57b1 56bc
00000150: f025 d5bd 511d e73d f77b c8bb 202c 6a3c
00000160: aaab 89bc 9b09 643d 77d5 fdbd 957a 813d
00000170: 54ee 1fbd 36c3 483d 2040 bcbd 60e2 ef3d
00000180: 2314 7b3c af43 93bc 0a24 3f3d b685 b1bd
00000190: 719c bd3d 03b9 b43d 8980 743d 1cc4 01be
000001a0: d8dc a7bd 012b d9bc 2a8b 53bc 7eea 2dbc
000001b0: d135 543d a658 ce3d 7578 bb3b 8c97 f5bd
000001c0: bc38 9bbd bfe0 95bd bd1a 703d 734b 973c
000001d0: bf2e c0bd bdec 85bd f06e f6bc e114 93bd
000001e0: 77cd c0bd 81b8 e7bd 0d6e d0bd 0252 833d
000001f0: c360 923d 9596 3d3b 8390 95bd 1f93 76bd
